Frontend/assets/ml_model/model.tflite (tflite, 483432 bytes, 6 tensors)

sequential_4/dense_14/BiasAdd/ReadVariableOp f4 [5]
0.2305392 0.033239737 0.011054269 -0.17071792 -0.104129925
00000000: 7812 6c3e 6426 083d f71c 353c aed0 2ebe
00000010: 1242 d5bd

sequential_4/dense_13/BiasAdd/ReadVariableOp f4 [128]
0.0011250532 -0.00090852444 0.005812001 -0.0027183364 0.0274075 0.005947722 0.092518434 0.13117751
0.06884307 -0.0003880721 0.022073878 0.08659915 0.091587104 0.13219525 -0.01677257 0.03258779
0.11073296 0.12432849 0.03473263 0.18875922 0.075754076 0.03919306 0.060611356 0.08130967
0.06699451 0.034194272 0.06080691 0.021422433 -0.021728158 0.0500506 0.06202664 0.08173804
-0.025076155 -0.031530906 0.0621293 0.013186502 0.07970137 0.10896454 0.08578833 0.07425796
0.09041309 0.010558305 0.101307884 0.052826207 0.034681804 -0.0065879268 0.04997143 -0.01020355
-0.0045666383 0.11666352 0.044425588 0.00439845 -0.014574805 0.1377896 -0.054320876 0.038384404
0.059609704 0.12803736 0.052091103 0.097443625 0.021366352 0.14298487 0.01427259 -0.015110573
0.037078552 0.056482043 0.103247255 0.06705802 0.08084091 0.0015481875 -0.02474689 0.03675499
0.044044316 0.04533765 0.09329831 0.04852821 0.10004318 0.050914895 0.023943251 0.020615645
0.079376206 -0.020720843 0.08267096 0.052606136 0.03725599 0.061663933 0.037904955 0.11231176
0.10575802 0.10972081 0.047859676 0.10405836 0.107052706 0.06832241 -0.008973336 0.07917356
0.078169204 0.052324537 0.1047819 0.09542803 -0.0014887092 0.08045795 0.043327812 0.044093657
0.038988687 0.16451935 0.0549826 0.00792455 -0.007914141 0.13824129 0.16017322 0.033312205
0.10551852 0.08306047 0.06964706 0.05758593 0.0019117545 0.09164771 0.027683888 0.07758691
-0.019430881 0.042612426 0.047950372 0.000776317 0.01500418 0.07695005 0.06281509 0.009814295
00000000: 8576 933a 0b2a 6eba 9972 be3b 1e26 32bb
00000010: b285 e03c 1ce5 c23b 4e7a bd3d 6653 063e
00000020: 98fd 8c3d 2876 cbb9 47d4 b43c e55a b13d
00000030: 0592 bb3d 315e 073e a166 89bc c67a 053d
00000040: f6c7 e23d ef9f fe3d cd43 0e3d 194a 413e
00000050: f424 9b3d e788 203d 9d43 783d af85 a63d
00000060: 6b34 893d 4b0f 0c3d ab10 793d 197e af3c
00000070: 40ff b1bc dc01 4d3d a50f 7e3d 4666 a73d
00000080: 826c cdbc 8d26 01bd 4b7b 7e3d 330c 583c
00000090: 793a a33d cd28 df3d cbb1 af3d 8f14 983d
000000a0: 802a b93d befc 2c3c 827a cf3d 4b60 583d
000000b0: 820e 0e3d 89df d7bb d8ae 4c3d ca2c 27bc
000000c0: bda3 95bb 49ed ee3d 9bf7 353d df20 903b
000000d0: 2acb 6ebc b818 0d3e 917f 5ebd f738 1d3d
000000e0: 4e29 743d 3a1c 033e 7b5d 553d 8690 c73d
000000f0: 7d08 af3c a06a 123e 95d7 693c 5692 77bc
00000100: aedf 173d b759 673d 4c73 d33d b755 893d
00000110: eb8f a53d 8dec ca3a fdb9 cabc 678c 163d
00000120: d067 343d f9b3 393d 2f13 bf3d 84c5 463d
00000130: 70e3 cc3d 238c 503d a324 c43c 24e2 a83c
00000140: fe8f a23d c2be a9bc 644f a93d 8879 573d
00000150: bd99 183d 5293 7c3d 3a42 1b3d b503 e63d
00000160: a997 d83d 4eb5 e03d 8208 443d 8d1c d53d
00000170: 733e db3d 9fec 8b3d e604 13bc bf25 a23d
00000180: 2d17 a03d 4152 563d e597 d63d c56f c33d
00000190: cb20 c3ba 23c7 a43d 8178 313d 8d9b 343d
000001a0: 9ab2 1f3d c377 283e 6f35 613d f9d5 013c
000001b0: 50aa 01bc 208f 0d3e 7304 243e 6172 083d
000001c0: 181a d83d 9c1b aa3d 1ea3 8e3d 39df 6b3d
000001d0: d693 fa3a cbb1 bb3d 52c9 e23c e3e5 9e3d
000001e0: 832d 9fbc 5e8a 2e3d 9c67 443d c181 4b3a
000001f0: 18d4 753c fd97 9d3d 33a5 803d 23cc 203c

sequential_4/dense_12/BiasAdd/ReadVariableOp f4 [256]
0.003379548 0.05828724 0.037162412 0.057931505 0.06554997 0.20383936 0.020422975 0.03634004
0.05074655 0.026393732 0.015485579 0.04044036 0.1575063 0.06672254 0.011358611 0.01433583
0.027827283 0.052636635 0.013558496 -0.017595552 0.03784687 0.034905702 0.12432977 0.08939866
0.0507793 0.13813743 0.08011063 0.08478957 0.09756938 -0.043603316 0.1485414 0.19608366
0.050645392 0.119653404 0.06651558 0.109442145 -0.026373843 0.048407715 0.07296328 0.018183762
0.076995075 0.06102898 0.0863329 0.103786245 0.04934054 0.023051223 0.07418354 0.09130104
0.0012258106 -0.06611628 0.051455706 0.014864194 0.09176595 0.16639407 0.032381017 0.06365502
0.10330937 0.11478535 0.23307364 0.118086964 0.14866202 0.025777152 0.045250867 0.0063182833
0.13184379 0.014247095 0.14465159 0.12752134 -0.020807683 -0.017217569 -0.0047732247 0.072357625
0.10017613 -0.026201893 0.016206222 0.07551617 0.07823649 0.084054664 0.09535003 0.030832153
0.08631086 0.09623821 0.19320238 0.0094617335 0.074333146 0.030140985 0.06281797 0.07327466
0.027807679 0.10024805 0.054445658 0.069054626 0.05213733 0.15501088 0.06867828 0.17406563
0.014198705 0.11924819 0.009205866 0.05650893 0.020256367 0.09336079 0.13863967 0.04191744
0.13892771 0.0018085076 0.107607625 -0.0016695881 0.030331029 0.026408922 0.048868235 0.029837996
0.10464396 0.09212955 0.028463678 0.05550919 0.07812356 -0.027158111 0.08836673 -0.012802515
-0.01372599 0.06922702 0.14963843 0.27840343 0.046242088 0.06197256 0.00500417 0.020468507
0.12849627 -0.013163902 0.10620261 0.11167674 0.034078155 0.071229875 0.15244183 0.08265897
0.05494297 0.06986474 0.036138147 0.05776657 0.005326148 0.042511437 0.1145653 0.08711115
0.046737287 0.16406778 0.000559717 -0.00568302 0.013936114 0.04446514 0.14657743 0.1042892
0.012847118 0.020292873 0.07494984 0.031922866 0.13508482 -0.035516117 0.049949426 0.042484272
0.05655448 -0.016165804 -0.005974981 0.12169498 0.090330064 -0.0043741437 0.04433825 -0.04106251
0.04527486 0.16294596 0.014935167 0.04301891 0.035061292 0.021742126 0.045918938 -0.00819927
0.033099238 0.04435558 0.062433917 0.10271885 -0.020376254 0.10496992 -0.04806134 0.2075187
-0.013738691 0.16759388 0.031835604 0.1262577 -0.013223933 0.008584577 0.11066981 0.02976825
0.09477054 0.035307586 -0.0046121804 0.03882293 0.0970668 0.123194404 -0.00075331505 0.03537462
0.06312735 0.13961424 -0.00035554328 0.106960215 -0.030154215 0.073755 -0.018814173 0.026896276
0.07131636 0.11821451 0.017597096 0.064027265 0.082318634 -0.0011509073 0.0008627528 0.09475992
0.06950879 0.0412763 0.023580981 0.00089088146 0.016896954 -0.040359497 0.006287567 0.089155145
0.018890921 0.119557396 0.03619797 0.06837356 -0.032188736 0.12752916 0.076445095 0.002095012
0.017378408 0.0013666683 0.03647783 0.02832883 0.06776467 -0.007520234 0.10853053 0.07592002
-0.0047482606 0.13127147 -0.024293475 0.080106705 0.0677164 0.045114055 0.098990366 0.01174451
0.03203215 0.12647277 0.0149957165 0.024014384 0.14615403 0.004602976 0.1013525 -0.009009056
00000000: 687b 5d3b 9abe 6e3d 9d37 183d 9649 6d3d
00000010: 103f 863d 44bb 503e 154e a73c 4bd9 143d
00000020: 9ddb 4f3d ab37 d83c 3ab7 7d3c caa4 253d
00000030: 5549 213e d4a5 883d 7819 3a3c d4e0 6a3c
00000040: 0bf6 e33c 8399 573d 7424 5e3c 8c24 90bc
00000050: 5205 1b3d 48f9 0e3d 9ba0 fe3d a516 b73d
00000060: f5fd 4f3d e673 0d3e 0b11 a43d 27a6 ad3d
00000070: 75d2 c73d 6499 32bd 3d1b 183e 28ca 483e
00000080: 8b71 4f3d d80c f53d 5239 883d 3423 e03d
00000090: f50d d8bc 2b47 463d c66d 953d 1df6 943c
000000a0: 98af 9d3d 86f9 793d 4ecf b03d e28d d43d
000000b0: 4e19 4a3d ebd5 bc3c 8aed 973d 0afc ba3d
000000c0: 61ab a03a f967 87bd 38c3 523d f388 733c
000000d0: c9ef bb3d 3563 2a3e f5a1 043d 905d 823d
000000e0: dd93 d33d 9514 eb3d dbaa 6e3e 94d7 f13d
000000f0: db3a 183e 9b2a d33c f958 393d 9a09 cf3b
00000100: 0f02 073e a66c 693c 8c1f 143e f494 023e
00000110: e074 aabc dc0b 8dbc b668 9cbb 3c30 943d
00000120: 2529 cd3d 5aa5 d6bc e9c2 843c 39a8 9a3d
00000130: 743a a03d da24 ac3d e046 c33d b693 fc3c
00000140: c0c3 b03d 8a18 c53d d8d6 453e 6305 1b3c
00000150: fa3b 983d 3aea f63c b5a6 803d 0611 963d
00000160: eecc e33c da4e cd3d 6902 5f3d 836c 8d3d
00000170: f48d 553d 2cbb 1e3e 33a7 8c3d 433e 323e
00000180: afa1 683c 6538 f43d 33d4 163c e875 673d
00000190: aef0 a53c f133 bf3d 8ff7 0d3e 9fb1 2b3d
000001a0: 1143 0e3e 720b ed3a 6361 dc3d 15d6 daba
000001b0: c778 f83c 8657 d83c 0f2a 483d d06e f43c
000001c0: 934f d63d 6bae bc3d a92c e93c 9b5d 633d
000001d0: 3fff 9f3d b07a debc 9ef9 b43d a4c1 51bc
000001e0: fae2 60bc e5c6 8d3d d13a 193e e58a 8e3e
000001f0: 5868 3d3d f0d6 7d3d 05fa a33b 92ad a73c
00000200: 8794 033e 68ad 57bc c180 d93d c6b6 e43d
00000210: 8995 0b3d f8e0 913d b619 1c3e 1b49 a93d
00000220: e10b 613d 3f15 8f3d 9805 143d a49c 6c3d
00000230: f886 ae3b 7920 2e3d 36a1 ea3d 5567 b23d
00000240: 996f 3f3d 6201 283e f9b9 123a a138 babb
00000250: 4c54 643c 1421 363d 6518 163e 9395 d53d
00000260: b87c 523c 3d3d a63c 4d7f 993d 8dc1 023d
00000270: ad53 0a3e 5979 11bd c597 4c3d fd03 2e3d
00000280: aca5 673d 266e 84bc c6c9 c3bb 383b f93d
00000290: f8fe b83d fa54 8fbb 069c 353d 2a31 28bd
000002a0: 2272 393d 4edb 263e a1b2 743c 9934 303d
000002b0: 6e9c 0f3d 8b1c b23c 7f15 3c3d 3b56 06bc
000002c0: 1193 073d 32ae 353d b5ba 7f3d 435e d23d
000002d0: 1aec a6bc 78fa d63d f8db 44bd c87f 543e
000002e0: 3f18 61bc bb9d 2b3e 0d66 023d b349 013e
000002f0: 32a9 58bc 53a6 0c3c daa6 e23d 8cdc f33c
00000300: 0f17 c23d b09e 103d c621 97bb cb04 1f3d
00000310: f5ca c63d 594d fc3d 1e7a 45ba fae4 103d
00000320: e948 813d 09f7 0e3e 3668 bab9 f50d db3d
00000330: f905 f7bc dd0c 973d 2e20 9abc 9455 dc3c
00000340: 500e 923d 731a f23d c927 903c ba20 833d
00000350: ac96 a83d 0ada 96ba 5c2a 623a 7d11 c23d
00000360: a05a 8e3d 5611 293d e72c c13c 0b8a 693a
00000370: 7b6b 8a3c 0050 25bd ef07 ce3b f996 b63d
00000380: 22c1 9a3c 82da f43d 5344 143d 7007 8c3d
00000390: 56d8 03bd 0197 023e 3f8f 9c3d 784c 093b
000003a0: 2a5d 8e3c c721 b33a c769 153d dd11 e83c
000003b0: 34c8 8a3d 4c6c f6bb 4145 de3d f57b 9b3d
000003c0: 4c97 9bbb 076c 063e 1c03 c7bc fc0e a43d
000003d0: e5ae 8a3d 84c9 383d 76bb ca3d 0c6c 403c
000003e0: 2534 033d 1482 013e 98b0 753c d0b9 c43c
000003f0: 67a9 153e 90d4 963b e691 cf3d b89a 13bc

sequential_4/dense_12/MatMul f4 [256, 338]
-0.08003969 0.03424905 -0.064120665 0.010134481 -0.06155474 0.047445428 0.00158187 0.11017195
-0.00040932093 0.05752658 0.031902548 -0.023526898 0.09355861 -0.0063789887 0.075566724 -0.018946
0.05059767 0.09939611 -0.042406686 -0.07819252 0.07527892 0.0336453 0.014259761 -0.084395684
0.0033443193 -0.044223297 -0.022670828 -0.009869007 -0.06269776 0.099267244 0.018955698 -0.03204202
0.047471058 -0.08900515 0.0018909797 -0.011498921 0.09193539 -0.06658777 -0.017620243 -0.0048916563
-0.08872865 0.021782476 0.0058434606 -0.044378906 -0.004890874 0.040423464 -0.024116352 0.014631994
-0.051535845 0.06110824 0.080841504 0.09201861 0.08421425 -0.08791253 0.041650053 0.042412348
0.07876003 -0.019221455 0.07544072 0.07507464 -0.06269951 0.08438552 0.06298512 -0.09230948
-0.011535078 -0.08513603 -0.10039212 -0.01873692 0.002302268 -0.018795233 0.046828084 -0.027991643
-0.067312256 0.00840211 0.029857524 0.024008527 0.08593082 -0.063149035 0.014649364 -0.08674937
-0.069797486 0.07778848 -0.022081263 -0.099612035 0.033246122 -0.0003314845 0.07635929 0.062065966
-0.05808245 0.015990587 -0.081735045 -0.08702059 -0.028734218 -0.07840596 -0.09464249 0.00324253
0.03565156 0.06389456 -0.033320554 -0.072584994 0.024063326 0.04853819 0.09719505 -0.08627713
-0.05028261 -0.008385283 -0.016294438 0.026330067 -0.025727356 -0.00094525516 -0.025601707 -0.056510497
0.01997175 0.09232026 0.07050886 -0.017092876 -0.020691425 0.070852876 -0.083029926 0.052654605
0.101258814 0.076091126 -0.044011913 0.0880285 -0.10018833 -0.08529575 -0.033119947 -0.0573264
0.09610788 -0.011115931 -0.016808903 0.09471411 0.07184139 0.009976666 -0.068840176 0.042789944
-0.051546797 -0.047770076 -0.06986187 -0.09482973 -0.00300771 0.04310564 -0.05403112 -0.06247633
-0.0804832 -0.05467592 -0.041682567 0.057658773 0.02868252 -0.094350465 0.0018496396 -0.0779945
-0.08752696 -0.019700967 -0.039794013 0.058516107 -0.08650117 -0.047678687 0.07550964 0.074457265
-0.0051483163 -0.082909696 -0.026767462 -0.044123206 -0.032180995 0.04840713 0.018264523 -0.01863616
-0.07000147 -0.09729841 -0.038004138 0.10945528 -0.009572353 0.0010659808 -0.09679499 -0.024014248
-0.04934564 -0.05273308 -0.07588669 -0.016221032 -0.06696187 -0.08740476 0.030639345 0.053261507
-0.00766062 -0.059394553 -0.027927106 -0.09472758 -0.04063969 -0.08947001 0.05969194 0.043168053
-0.017438402 0.057791945 -0.047734022 0.076035015 -0.087044135 0.011688254 -0.068454474 -0.03436525
0.09849369 -0.041343022 -0.07466709 -0.058485556 0.023932612 -0.080803856 0.008221187 0.0335864
0.03238853 0.06346755 -0.05960607 -0.051921032 0.07736404 -0.0692486 0.01572431 0.06225463
-0.031001255 0.006252167 0.028372793 -0.001799818 -0.0712813 0.036999833 0.025065916 -0.07164721
-0.0994449 0.092084974 -0.08466976 -0.094464235 0.048122942 -0.019557066 -0.03862257 0.0152571
0.07615002 0.08719264 -0.06350231 -0.019025058 0.03993631 0.034081034 0.03480911 -0.0538153
-0.09118837 -0.009252172 -0.015638072 -0.04054223 -0.03379634 0.040370055 -0.020681717 -0.07921098
0.014303871 -0.04198058 0.06865805 0.003650638 0.07963999 -0.048348363 -0.06384413 0.10053809
00000000: d9eb a3bd bb48 0c3d b251 83bd 180b 263c
00000010: d320 7cbd 2356 423d c056 cf3a d5a1 e13d
00000020: 209a d6b9 fea0 6b3d 3fac 023d 7bbb c0bc
00000030: a89b bf3d d606 d1bb bac2 9a3d a434 9bbc
00000040: 813f 4f3d 3090 cb3d a2b2 2dbd 6623 a0bd
00000050: d62b 9a3d a7cf 093d c6a1 693c a5d7 acbd
00000060: 5e2c 5b3b 7d23 35bd 2cb8 b9bc 9eb1 21bc
00000070: af67 80bd a04c cb3d fb48 9b3c 7e3e 03bd
00000080: 0371 423d 5548 b6bd c0da f73a f865 3cbc
00000090: 9f48 bc3d 2b5f 88bd 5458 90bc 304a a0bb
000000a0: 5eb7 b5bd 2a71 b23c 807a bf3b a8c6 35bd
000000b0: a043 a0bb 1393 253d a88f c5bc 08bb 6f3c
000000c0: 4017 53bd a24c 7a3d 3b90 a53d 4174 bc3d
000000d0: 8578 ac3d 7c0b b4bd 3f99 2a3d 92b8 2d3d
000000e0: f04c a13d 5076 9dbc aa80 9a3d bcc0 993d
000000f0: 9a68 80bd 51d2 ac3d 58fe 803d c10c bdbd
00000100: a0fd 3cbc cd5b aebd 629a cdbd 2b7e 99bc
00000110: a6e1 163b 76f8 99bc cece 3f3d bb4e e5bc
00000120: 02db 89bd 01a9 093c c497 f43c 88ad c43c
00000130: 7ffc af3d 4854 81bd e303 703c a7a9 b1bd
00000140: fcf1 8ebd 914f 9f3d c4e3 b4bc 6501 ccbd
00000150: 162d 083d 19cb adb9 4262 9c3d e238 7e3d
00000160: dde7 6dbd b1fe 823c b464 a7bd da37 b2bd
00000170: 0664 ebbc 4e93 a0bd ecd3 c1bd a080 543b
00000180: 5f07 123d 27db 823d 227b 08bd 71a7 94bd
00000190: 7420 c53c fbcf 463d 330e c73d 10b2 b0bd
000001a0: 23f5 4dbd 6d62 09bc ea7b 85bc 27b2 d73c
000001b0: 2dc2 d2bc 00cb 77ba acba d1bc 8d77 67bd
000001c0: cc9b a33c 6812 bd3d f366 903d 5c06 8cbc
000001d0: 1081 a9bc 501b 913d 980b aabd 5bac 573d
000001e0: c860 cf3d aad5 9b3d d645 34bd 4948 b43d
000001f0: 8a2f cdbd 8aaf aebd c8a8 07bd 16cf 6abd
00000200: 35d4 c43d 981f 36bc d3b2 89bc 79f9 c13d
00000210: 9421 933d 2c75 233c 14fc 8cbd 8244 2f3d
00000220: bc22 53bd 8eaa 43bd bd13 8fbd 1736 c2bd
00000230: 001d 45bb 8a8f 303d bc4f 5dbd 2ee7 7fbd
00000240: 60d4 a4bd dcf3 5fbd 57bb 2abd 9b2b 6c3d
00000250: 9bf7 ea3c d13a c1bd 9b6f f23a 95bb 9fbd
00000260: 5641 b3bd ec63 a1bc 0cff 22bd 96ae 6f3d
00000270: 8727 b1bd ba4a 43bd cca4 9a3d 0d7d 983d
00000280: 35b3 a8bb 8fcc a9bd 7047 dbbc 89ba 34bd
00000290: 38d0 03bd 8e46 463d 7b9f 953c dcaa 98bc
000002a0: ee5c 8fbd 6444 c7bd 3aaa 1bbd 172a e03d
000002b0: 5cd5 1cbc 61b8 8b3a 743c c6bd 87b9 c4bc
000002c0: a71e 4abd a4fe 57bd 7b6a 9bbd f8e1 84bc
000002d0: 4e23 89bd 4401 b3bd 5dff fa3c bd28 5a3d
000002e0: f005 fbbb b447 73bd 63c7 e4bc 8900 c2bd
000002f0: ce75 26bd 0d3c b7bd 897f 743d fcd0 303d
00000300: fbda 8ebc 3fb7 6c3d c084 43bd 3fb8 9b3d
00000310: 3244 b2bd 1780 3f3c dc31 8cbd 94c2 0cbd
00000320: 0fb7 c93d 4d57 29bd 0feb 98bd 8d8e 6fbd
00000330: 530e c43c 7e7c a5bd 28b2 063c e591 093d
00000340: d6a9 043d 46fb 813d 7f25 74bd 26ab 54bd
00000350: 0a71 9e3d 36d2 8dbd 45d0 803c b6fe 7e3d
00000360: 58f6 fdbc fade cc3b 0f6e e83c dfe7 ebba
00000370: eefb 91bd 238d 173d 0957 cd3c c6bb 92bd
00000380: c5a9 cbbd 0c97 bc3d 5767 adbd 7776 c1bd
00000390: 901c 453d 2436 a0bc b332 1ebd eaf8 793c
000003a0: 8bf4 9b3d 0e92 b23d 800d 82bd 70da 9bbc
000003b0: 4294 233d 8e98 0b3d ff93 0e3d 6f6d 5cbd
000003c0: f8c0 babd 6c96 17bc 6a1b 80bc 9c0f 26bd
000003d0: 086e 0abd 125b 253d b46c a9bc 5e39 a2bd
000003e0: c95a 6a3c d4f3 2bbd 979c 8c3d 8b3f 6f3b
000003f0: 4b1a a33d ef08 46bd b6c0 82bd eae6 cd3d

sequential_4/dense_13/MatMul f4 [128, 256]
0.08738758 0.1080048 0.09623852 0.08924606 -0.1518989 -0.12234643 0.04699132 -0.13462019
0.110795304 0.014221048 0.11506463 0.027482258 0.08455204 0.09858748 -0.10019171 0.040405486
0.022191001 -0.10767918 0.10702499 0.06215466 0.04591161 0.015861876 0.1474726 0.051348433
-0.08612627 0.087883554 0.047972243 -0.0071733356 -0.029238751 0.05802533 -0.031485125 -0.011947511
0.12469662 -0.016020492 -0.081045985 -0.14115511 -0.043558322 0.112088 0.06744148 -0.04865556
-0.016110726 -0.055432435 0.029716486 -0.040218107 -0.13324013 -0.10411372 -0.068996295 -0.026893076
-0.015917249 -0.046003688 -0.025072904 -0.01173056 0.14158525 -0.11406623 0.059427697 -0.043410033
-0.09838354 -0.025352504 -0.010585758 0.025619937 -0.0149161285 -0.022120595 -0.01601509 0.0899991
-0.0055366056 -0.0716402 0.11789449 0.09001436 -0.09225552 0.07530357 0.027519248 0.042768944
0.0024285866 -0.047882073 -0.015911687 0.18560743 -0.012619436 0.038994905 0.08053836 0.079198636
-0.089088075 0.09945605 -0.07512458 -0.12063273 -0.118412614 0.041055046 0.03787771 0.07416695
0.10238536 -0.03559511 -0.016484974 0.03601154 -0.0591304 -0.0992007 0.12806773 0.037711594
-0.13879853 0.025164042 -0.019509524 -0.10058557 0.044293564 0.009349376 -0.06641737 0.09184282
-0.04903923 -0.017898107 -0.0065896064 -0.0060007307 0.09080464 -0.08782683 -0.09733084 0.10268493
-0.003647222 -0.035538897 0.09105072 0.035662703 0.04115767 -0.09392964 -0.09307424 0.013382528
-0.03134184 -0.06803968 -0.046746835 -0.030752016 -0.10435737 -0.07896084 -0.0013149881 0.10043354
0.07695105 0.0010038153 -0.052131906 0.017378306 0.05923317 -0.004547115 0.07773997 0.13651127
0.093652315 0.03621015 0.033229396 0.04621633 0.0308154 -0.051170688 -0.011772744 0.10549345
-0.063808165 0.22974516 -0.017197179 0.046671722 -0.09666161 -0.046153307 0.05094158 -0.013176764
-0.09162206 -0.09217354 0.120229535 0.0012424783 0.079863 0.061984397 -0.11475861 -0.075080715
-0.008592074 -0.094929755 -0.028800508 0.083356395 0.07764397 0.10142371 -0.033451244 -0.10070448
-0.064728156 -0.06443858 -0.079679154 0.034447074 -0.032483604 -0.07372213 -0.0120625505 -0.120439865
-0.03622965 0.034000736 0.03270633 -0.12303981 0.072399184 -0.04553658 -0.063264206 -0.09996828
0.08145201 -0.011494942 -0.07334803 0.09663203 0.06332936 -0.031079302 0.08488777 -0.040504266
0.021381214 0.10923379 -0.027648821 -0.007201263 0.06558689 0.02105009 0.08345657 0.0838267
0.085293084 -0.10989398 -0.09806892 0.061283994 -0.11539254 -0.04650728 0.06325524 -0.019488318
-0.040444743 0.012993086 0.042456612 -0.033783145 0.028574387 -0.00921848 0.051951695 -0.004974535
-0.07361194 0.03139736 0.07254447 -0.06205635 -0.12096549 0.08772448 0.07161611 -0.02412058
0.07201245 0.1278329 -0.07205979 0.08432156 0.040104784 0.053440407 -0.02465859 0.09378598
-0.035277046 -0.04594792 0.07051934 0.017683359 0.0770974 0.13595097 0.050860308 0.02319559
0.0301615 -0.04081925 -0.123971336 0.118288666 -0.041014947 0.06961383 0.025866136 0.026855554
0.07598389 -0.07574366 -0.065973505 -0.103468135 0.05721518 -0.06186664 -0.005954856 0.0996363
00000000: 42f8 b23d 9f31 dd3d b418 c53d a3c6 b63d
00000010: 638b 1bbe c490 fabd f879 403d e0d9 09be
00000020: a6e8 e23d 66ff 683c 01a7 eb3d 7922 e13c
00000030: 9f29 ad3d 3ce8 c93d 5031 cdbd 3980 253d
00000040: e7c9 b53c e786 dcbd eb2f db3d e295 7e3d
00000050: d00d 3c3d c4f0 813c 0f03 173e bc52 523d
00000060: f862 b0bd 4bfc b33d 8b7e 443d 4d0e ebbb
00000070: 1b86 efbc f8ab 6d3d 8cf6 00bd 7ebf 43bc
00000080: f160 ff3d 683d 83bc 70fb a5bd f78a 10be
00000090: 366a 32bd 658e e53d c21e 8a3d 0d4b 47bd
000000a0: a4fa 83bc 1f0d 63bd fd6f f33c bebb 24bd
000000b0: 1a70 08be 9339 d5bd ee4d 8dbd de4e dcbc
000000c0: e464 82bc 5d6e 3cbd b165 cdbc 8931 40bc
000000d0: b9fb 103e 8e9b e9bd 756a 733d b8ce 31bd
000000e0: 4f7d c9bd 0eb0 cfbc e36f 2dbc e7e0 d13c
000000f0: c762 74bc 4036 b5bc 1432 83bc 7351 b83d
00000100: 6a6c b5bb 19b8 92bd ab72 f13d 7359 b83d
00000110: 76f0 bcbd c238 9a3d 0c70 e13c 7d2e 2f3d
00000120: ec28 1f3b fe1f 44bd 3a59 82bc e00f 3e3e
00000130: c0c1 4ebc 1fb9 1f3d 4cf1 a43d e532 a23d
00000140: cf73 b6bd 9daf cb3d eada 99bd 4b0e f7bd
00000150: 5082 f2bd 5629 283d a825 1b3d d8e4 973d
00000160: 6aaf d13d 2ecc 11bd 7f0b 87bc d680 133d
00000170: b832 72bd bd29 cbbd 3024 033e 7977 1a3d
00000180: 3421 0ebe d224 ce3c 70d2 9fbc cfff cdbd
00000190: 2b6d 353d 202e 193c d505 88bd 1718 bc3d
000001a0: 5cdd 48bd 0d9f 92bc a0ed d7bb c7a1 c4bb
000001b0: c8f7 b93d 8ede b3bd 6455 c7bd 7a4c d23d
000001c0: 3b06 6fbb 3c91 11bd cd78 ba3d 0e13 123d
000001d0: f294 283d 2f5e c0bd b59d bebd 6442 5b3c
000001e0: 4d60 00bd 6358 8bbd 9c79 3fbd a7eb fbbc
000001f0: 51b9 d5bd 39b6 a1bd ae5b acba 1ab0 cd3d
00000200: 8398 9d3d 7492 833a 4488 55bd f35c 8e3c
00000210: 7b9e 723d f7ff 94bb 2236 9f3d 9cc9 0b3e
00000220: c9cc bf3d 1851 143d 8c1b 083d 564d 3d3d
00000230: 9470 fc3c 5b98 51bd 78e2 40bc f30c d83d
00000240: dbad 82bd 5142 6b3e 19e1 8cbc d92a 3f3d
00000250: 86f6 c5bd 400b 3dbd 1ea8 503d 5be3 57bc
00000260: 59a4 bbbd 7bc5 bcbd e73a f63d a7da a23a
00000270: 368f a33d 5ae3 7d3d 9006 ebbd ebc3 99bd
00000280: c5c5 0cbc 886a c2bd 0bef ebbc c2b6 aa3d
00000290: cd03 9f3d 3cb7 cf3d 2c04 09bd 273e cebd
000002a0: 3290 84bd 60f8 83bd d32e a3bd 6018 0d3d
000002b0: 870d 05bd a1fb 96bd 01a2 45bc 2da9 f6bd
000002c0: 8b65 14bd 5b44 0b3d 13f7 053d 4cfc fbbd
000002d0: 0646 943d 9184 3abd aa90 81bd 2bbc ccbd
000002e0: 50d0 a63d 4855 3cbc 7e37 96bd 04e7 c53d
000002f0: d3b2 813d 059a febc a4d9 ad3d cde7 25bd
00000300: a827 af3c f7b5 df3d c87f e2bc 93f8 ebbb
00000310: 6b52 863d 3d71 ac3c 47eb aa3d 55ad ab3d
00000320: 24ae ae3d 1810 e1bd 5cd8 c8bd ed04 7b3d
00000330: ed52 ecbd 6b7e 3ebd f78b 813d f7a5 9fbc
00000340: 63a9 25bd f4e0 543c fce6 2d3d 3260 0abd
00000350: d514 ea3c 1c09 17bc 4dcb 543d 6d01 a3bb
00000360: dbc1 96bd 859a 003d 3292 943d cd2e 7ebd
00000370: c1bc f7bd e4a8 b33d 78ab 923d 8698 c5bc
00000380: 437b 933d a1e6 023e 1594 93bd c8b0 ac3d
00000390: ea44 243d 54e4 5a3d d000 cabc dd12 c03d
000003a0: aa7e 10bd e333 3cbd 726c 903d b1dc 903c
000003b0: 3ee5 9d3d bb36 0b3e e652 503d ae04 be3c
000003c0: 4015 f73c 1632 27bd afe4 fdbd 5441 f23d
000003d0: 4aff 27bd b291 8e3d 38e5 d33c 2e00 dc3c
000003e0: 719d 9b3d 7e1f 9bbd 1e1d 87bd 1ae7 d3bd
000003f0: 775a 6a3d e067 7dbd f420 c3bb 1e0e cc3d

sequential_4/dense_14/MatMul f4 [5, 128]
-0.16314456 0.15325777 0.030300504 -0.056558415 -0.21298969 0.49528235 0.29172206 0.21266343
0.33316904 0.16069451 -0.04498453 -0.31401807 0.07110268 -0.31617272 -0.123162776 -0.217515
0.44947475 -0.059433524 -0.06722309 0.30747387 -0.13351245 -0.010823931 0.2776421 -0.37573144
0.48462695 0.017571582 0.22396676 -0.3266507 -0.14150062 -0.2697409 -0.13672204 0.15180053
-0.020232506 0.038365327 0.09420751 -0.016317207 -0.3852798 0.33224943 -0.2575255 -0.20308962
0.3481758 0.274923 0.28084168 -0.20608236 -0.11133565 -0.13265868 -0.23640789 -0.13878572
-0.074661985 -0.569833 0.28306493 0.06411149 0.021776639 0.12333765 0.17261134 -0.2764147
-0.041773155 -0.36402717 0.49273995 -0.24119283 0.50104046 0.357706 -0.15003477 0.3355032
-0.086293355 -0.4340641 -0.28482637 0.3898873 -0.15495956 -0.007388306 0.0817197 -0.14330815
0.09512642 0.44428006 0.042657897 -0.049133398 -0.23386832 -0.16463493 -0.0650101 -0.21910699
-0.45139027 -0.15223242 0.2803752 0.10428444 -0.25814852 -0.1268615 -0.3424541 0.12193965
-0.27354044 -0.35754818 -0.24225517 -0.57632405 0.40488526 -0.28784448 0.027329365 -0.17368129
-0.19177522 0.14077754 0.34988838 -0.3473396 -0.2384069 -0.08015061 -0.22049148 -0.22900422
-0.13220395 0.35249367 -0.22032751 -0.056378044 -0.16328107 0.16042194 0.06634284 -0.120856926
0.2945976 0.22226371 -0.033860493 0.35235953 -0.2545183 0.23113331 -0.24524039 0.2587148
-0.12907179 0.089633614 0.2900622 -0.04015658 0.16832775 0.29519436 0.4355353 -0.30107343
0.3559294 -0.031912632 0.21298812 0.12392436 0.2716873 -0.100139864 0.26105672 0.12222716
-0.023237282 0.111462474 -0.06186329 0.12370208 0.23791738 -0.38213253 -0.22843125 0.09797941
-0.31807557 -0.31644523 0.4421582 0.37333003 0.20918392 0.3086082 0.076313384 0.16256392
0.27365488 -0.2518293 -0.20352687 -0.081966616 -0.08392684 0.28666338 -0.34229457 -0.44939065
-0.033774536 0.09313986 -0.3943903 0.060522117 0.32711136 0.10555467 0.037045125 -0.13417757
-0.17659774 -0.13004753 0.26819095 -0.00835774 0.46375915 -0.12278311 0.04277609 0.049250644
-0.059281517 0.2590642 -0.2733011 0.15983912 -0.052765686 -0.05908779 0.04229675 -0.07077245
0.077727355 0.39767274 -0.23012356 -0.02795306 -0.27213168 -0.5211358 -0.04330041 -0.405177
-0.23580685 0.4034528 0.45406085 -0.40681702 -0.016204286 0.45850584 -0.083009414 -0.114970066
-0.15228385 -0.34075662 -0.3234689 -0.10914094 -0.18288186 0.35481983 0.5349414 -0.082102746
0.08908941 0.00011043503 0.33094805 -0.06933809 0.060073845 0.1753198 0.33352876 0.26153487
0.47623888 0.07651054 -0.034396797 0.19480307 0.277001 0.060845405 -0.14655161 -0.28012264
-0.15569243 -0.14453387 0.24582386 0.351688 -0.19685428 0.52312243 -0.10506476 -0.31739283
-0.35529625 0.2600963 -0.1320809 0.11210637 -0.071098834 0.19050178 -0.5774375 0.47166297
-0.10023812 -0.56219137 -0.25508675 0.45027238 -0.19288239 -0.12383528 -0.28949517 0.36459306
-0.08338561 -0.2547094 -0.11552477 -0.35234323 -0.28771073 0.16517952 -0.01499065 0.0005120577
00000000: 5e0f 27be 9bef 1c3e c338 f83c cca9 67bd
00000010: f819 5abe a695 fd3e 985c 953e 71c4 593e
00000020: 2295 aa3e 1a8d 243e b341 38bd fac6 a0be
00000030: 489e 913d 64e1 a1be c43c fcbd 41bc 5ebe
00000040: 8e21 e63e 9170 73bd 42ac 89bd 376d 9d3e
00000050: 7db7 08be db56 31bc 1b27 8e3e df5f c0be
00000060: 0621 f83e 47f2 8f3c 8b57 653e c33e a7be
00000070: 8ae5 10be 7b1b 8abe dd00 0cbe 9971 1b3e
00000080: a4be a5bc f624 1d3d deef c03d aaab 85bc
00000090: 6543 c5be 991c aa3e 62da 83be baf6 4fbe
000000a0: 1944 b23e b5c2 8c3e 7bca 8f3e 4107 53be
000000b0: f203 e4bd add7 07be e914 72be d81d 0ebe
000000c0: 62e8 98bd 93e0 11bf e3ed 903e e34c 833d
000000d0: ec64 b23c 7398 fc3d 07c1 303e 3a86 8dbe
000000e0: 541a 2bbd c561 babe 6948 fc3e 41fb 76be
000000f0: 3044 003f 3e25 b73e b7a2 19be 13c7 ab3e
00000100: 92ba b0bd a63d debe c3d4 91be 4f9f c73e
00000110: b8ad 1ebe 9a19 f2bb a85c a73d 5fbf 12be
00000120: a4d1 c23d ad78 e33e 0cba 2e3d 1a40 49bd
00000130: 2d7b 6fbe 0f96 28be 0424 85bd 955d 60be
00000140: a01c e7be d1e2 1bbe 578d 8f3e 1593 d53d
00000150: 0b2c 84be fbe7 01be 2556 afbe 7fbb f93d
00000160: 7e0d 8cbe 8e10 b7be bd11 78be f989 13bf
00000170: 1f4d cf3e 5a60 93be d5e1 df3c 82d9 31be
00000180: b960 44be fd27 103e 9224 b33e 7fd6 b1be
00000190: f020 74be 0126 a4bd 85c8 61be 1580 6abe
000001a0: 7960 07be 0d7a b43e 899d 61be aaec 66bd
000001b0: 2733 27be a645 243e c1de 873d d683 f7bd
000001c0: 7fd5 963e 1999 633e 4db1 0abd 7868 b43e
000001d0: 3950 82be 36ae 6c3e 4c20 7bbe 4476 843e
000001e0: 652b 04be d491 b73d 0883 943e 3a7b 24bd
000001f0: 1c5e 2c3e b723 973e 7cfe de3e 4c26 9abe
00000200: 613c b63e d2b6 02bd 8f19 5a3e 0ecc fd3d
00000210: 991a 8b3e 2116 cdbd 3aa9 853e 3c52 fa3d
00000220: 1d5c bebc 7046 e43d 5c64 7dbd 8457 fd3d
00000230: 9da0 733e e0a6 c3be e2e9 69be 6ea9 c83d
00000240: cdda a2be 1c05 a2be 8f62 e23e 1d25 bf3e
00000250: 4f34 563e e501 9e3e 314a 9c3d 2877 263e
00000260: 7e1c 8c3e c5ef 80be 5969 50be 1dde a7bd
00000270: d6e1 abbd 8bc5 923e 3c41 afbe 8816 e6be
00000280: 2b57 0abd 1cc0 be3d 87ed c9be 0ae6 773d
00000290: 247b a73e 0c2d d83d a1bc 173d d865 09be
000002a0: 0ad6 34be 2e2b 05be 5350 893e e7ee 08bc
000002b0: d771 ed3e b675 fbbd fb35 2f3d 0bbb 493d
000002c0: 2dd1 72bd 10a4 843e 1fee 8bbe deac 233e
000002d0: d520 58bd 0a06 72bd 5b3f 2d3d 25f1 90bd
000002e0: 852f 9f3d c39b cb3e 83a5 6bbe d1fd e4bc
000002f0: d854 8bbe 2869 05bf c55b 31bd 5c73 cfbe
00000300: 5a77 71be 5e91 ce3e aa7a e83e 524a d0be
00000310: dabe 84bc 47c1 ea3e d700 aabd 6d75 ebbd
00000320: 4cf0 1bbe a777 aebe b79d a5be 4985 dfbd
00000330: 6245 3bbe f2aa b53e ebf1 083f 7c25 a8bd
00000340: 8274 b63d 5b99 e738 0672 a93e 2101 8ebd
00000350: fe0f 763d 0987 333e 48c4 aa3e e6e7 853e
00000360: 95d5 f33e 8fb1 9c3d a8e3 0cbd 757a 473e
00000370: 13d3 8d3e 0839 793d a011 16be 3c6c 8fbe
00000380: d66d 1fbe b000 14be 40b9 7b3e 7310 b43e
00000390: 2b94 49be 5aeb 053f 312c d7bd 5081 a2be
000003a0: 64e9 b5be 582b 853e 3740 07be 0698 e53d
000003b0: 449c 91bd e612 433e f2d2 13bf cf7d f13e
000003c0: a549 cdbd c6eb 0fbf bb9a 82be 1a8a e63e
000003d0: f682 45be 5a9d fdbd b638 94be f1ab ba3e
000003e0: 13c6 aabd 4569 82be 4098 ecbd 5566 b4be
000003f0: d24e 93be d224 293e 589b 75bc 9c3b 063a
